runs/CyclistITT-v0__sac_continous_action__1__1766982939/sac_actor.pth (torch, 278228 bytes, 6 tensors)

fc1.weight f4 [256, 8]
0	0x3e30a2e5	0.1724964
1	0xbea692ef	-0.32533976
2	0x3d2b80b6	0.041870795
3	0x3dd75493	0.10514178
4	0xbf0a4971	-0.5401831
5	0x3f0e339b	0.55547494
6	0xbebbf264	-0.36708367
7	0x3e40378d	0.18771191
8	0xbe5fa6cf	-0.21840976
9	0xbe12d3e3	-0.14338641
10	0xbdece426	-0.11566953
11	0x3d789537	0.060689177
12	0x3ee28a91	0.44246343
13	0xbf7115df	-0.94174
14	0xbdece01a	-0.115661815
15	0xbe582872	-0.21109179
16	0x3d48d873	0.049034547
17	0xbec6e379	-0.38845423
18	0x3e0352f3	0.12824611
19	0xbdda9ec0	-0.106748104
20	0xbe9b3cf4	-0.3031994
21	0xbf2b1dcb	-0.66842335
22	0x3db44b27	0.08803397
23	0xbe62e765	-0.22158583
24	0xbeab7255	-0.33485666
25	0xbe5beac1	-0.2147627
26	0x3e0f9e81	0.14025308
27	0xbe40299a	-0.1876587
28	0xbf3e6389	-0.7437063
29	0xbf3589c5	-0.70913345
30	0xbda6b464	-0.081398755
31	0x3e813d2e	0.2524199
32	0x3ed04db6	0.4068429
33	0xbf2532f8	-0.645309
34	0x3dbd43d6	0.09241454
35	0xbc6f818c	-0.014618289
36	0x3f2bdd56	0.67134607
37	0xbf29ba13	-0.6629955
38	0x3eeba1db	0.46021923
39	0xbd3ff514	-0.046864584
40	0x3eb6aa1a	0.35676652
41	0xbf254362	-0.64555943
42	0x3ed94f56	0.4244334
43	0x39605316	0.00021393257
44	0xbe5a09b7	-0.21292768
45	0x3ed0be38	0.40770125
46	0xbe972e94	-0.29527724
47	0x3dea6f81	0.11447049
48	0xbedbacca	-0.42905265
49	0xbf17ab19	-0.5924545
50	0x3d0c860d	0.03430753
51	0xbe3001ae	-0.17188141
52	0x3e599d72	0.21251467
53	0xbebd014d	-0.36915055
54	0x3e09138e	0.13386366
55	0x3d41d84d	0.04732542
56	0xbe2bcd76	-0.16777596
57	0xbf03ceeb	-0.51487607
58	0x3e89c3b0	0.2690711
59	0xbdef2523	-0.11677005
60	0x3d740a07	0.059579875
61	0x3f1b6ed9	0.60716015
62	0x3f301d31	0.6879454
63	0x3e9295d2	0.2862993
64	0xbe83cbb7	-0.2574136
65	0xbf4810b5	-0.7815049
66	0xbd84fc0d	-0.06493387
67	0xbb6fbec2	-0.0036582206
68	0xbe7d7995	-0.24753411
69	0xbf212320	-0.6294422
70	0x3de6aff6	0.11264031
71	0xbe4724dd	-0.19447656
72	0x3c5e0fca	0.013553569
73	0xbdf5cb2e	-0.12001644
74	0x3e11c7d1	0.1423638
75	0xbeeb70c2	-0.45984465
76	0xbe82ccd3	-0.25546893
77	0x3e46721b	0.19379465
78	0xbf30155a	-0.6878258
79	0xbd5e98d8	-0.054344982
80	0xbf154e24	-0.5832236
81	0xbe8a0144	-0.2695409
82	0xbcfb1e9e	-0.030654248
83	0xbb00c74e	-0.0019650045
84	0xbe1ca716	-0.15298113
85	0xbf0b6335	-0.5444825
86	0xbebaa0ff	-0.36450955
87	0x3e94024a	0.28907996
88	0xbe514e25	-0.20439966
89	0x3d3fec5c	0.04685627
90	0x3e68aa9f	0.22721337
91	0xbe4873af	-0.1957538
92	0xbd886096	-0.06659047
93	0x3ece835e	0.403346
94	0xbd49c165	-0.0492567
95	0xbe61d21d	-0.22052808
96	0x3e9d430f	0.30715224
97	0xbc48e7ca	-0.012262294
98	0x3ccec401	0.025239946
99	0xbd8f4401	-0.069953926
100	0x3f227a33	0.6346771
101	0xbf568373	-0.83794326
102	0xbd742a5d	-0.059610713
103	0x3e1b1c98	0.15147626
104	0xbe7ba25c	-0.24573654
105	0xbec65ded	-0.38743535
106	0x3e712afa	0.2355155
107	0xbd097b77	-0.03356501
108	0x3f47abe1	0.7799664
109	0xbd651356	-0.055926643
110	0x3e0df1f5	0.1386183
111	0x3e90c76e	0.28277153
112	0x3dcfb055	0.101410545
113	0xbf45aabd	-0.7721365
114	0x3d9cbfa9	0.07653744
115	0x3ea9cbee	0.33163399
116	0x3ec691f6	0.38783234
117	0x3ee7daa2	0.4528399
118	0xbee99da2	-0.45628077
119	0xbda7b1f2	-0.08188237
120	0xbed28a12	-0.41120964
121	0xbe286141	-0.1644335
122	0x3e332b01	0.17496873
123	0xbdbe70a3	-0.092988275
124	0x3d2ecdb0	0.042676628
125	0xbf80d090	-1.0063648
126	0xbee77e79	-0.45213678
127	0xbdf6a24b	-0.12042674
128	0x3ddfb652	0.10923447
129	0x3ea379c0	0.31928825
130	0xbe6e9734	-0.23299867
131	0x3cc21f5b	0.023696592
132	0x3ef93c6c	0.4867891
133	0x3de8b598	0.11362761
134	0x3e1b2f30	0.1515472
135	0xbc4aeb8a	-0.012385258
136	0x3ea4952c	0.3214506
137	0x3dfbed11	0.12301076
138	0xbf044543	-0.51668185
139	0xbe8d3572	-0.27579838
140	0xbf04ac08	-0.51825
141	0xbf40399a	-0.75087893
142	0x3b54a66e	0.0032447833
143	0x3c39e425	0.011345898
144	0xbe5a2f06	-0.21307
145	0xbf5737d2	-0.8406955
146	0xbd22cb20	-0.039744496
147	0xbd88ed0e	-0.066858396
148	0x3c870d6d	0.016485894
149	0x3e3337f1	0.17501809
150	0x3e04eb30	0.12980342
151	0x3e67f609	0.22652449
152	0xbeba8d4a	-0.3643592
153	0x3e250455	0.16114934
154	0xbde25c62	-0.11052777
155	0x3d70aecf	0.05876046
156	0xbee37bcd	-0.4443039
157	0xbf2f0af3	-0.6837608
158	0x3ee80e0b	0.45323214
159	0xbdd87427	-0.10569029
160	0xbef1de06	-0.47239703
161	0x3da7b1a4	0.08188179
162	0x3cf1ef25	0.029532978
163	0x3efd597f	0.49482343
164	0xbd69fb6c	-0.05712454
165	0x3dee2550	0.116282105
166	0xbd28b4a4	-0.041187897
167	0xbd5e9db2	-0.05434961
168	0xbeb0cf64	-0.34533226
169	0xbe36684a	-0.1781322
170	0xbea5d5e7	-0.32389757
171	0x3c5c9ecc	0.0134655945
172	0x3ebbe4dd	0.36698046
173	0xbc810335	-0.0157486
174	0x3f875f92	1.0576041
175	0x3ecbab0a	0.3977893
176	0x3d6213f9	0.05519483
177	0xbed2acfb	-0.411476
178	0xbdf67c3e	-0.12035416
179	0x3e0f5551	0.1399739
180	0xbe4e365b	-0.20137922
181	0xbf61b5e3	-0.8816816
182	0xbe9fbdc0	-0.31199455
183	0xbe5886bc	-0.21145147
184	0xbed7a498	-0.42117763
185	0x3e826d88	0.2547419
186	0x3d4aacd7	0.04948124
187	0xbe629545	-0.22127254
188	0x3deaea2d	0.11470447
189	0xbf6094e0	-0.87727165
190	0xbc1ca056	-0.009559711
191	0xbdf36e64	-0.1188629
192	0xbe91fb36	-0.2851197
193	0x3e7ba174	0.24573308
194	0x3ee68a89	0.4502757
195	0xbe4ec197	-0.20191036
196	0x3f3e5f58	0.74364233
197	0x3eb6702f	0.35632464
198	0x3f1a23c6	0.60210836
199	0xbe4c90be	-0.1997709
200	0x3d2e5568	0.04256192
201	0xbf2ef69e	-0.6834506
202	0x3e4dfc63	0.20115809
203	0xbe65e923	-0.22452216
204	0x3e97837b	0.295925
205	0xbdeba242	-0.115055576
206	0x3e9c6d88	0.30552316
207	0xbd9e839c	-0.07739946
208	0x3da992b9	0.08279938
209	0x3e5cf595	0.21578057
210	0x3ec7b9cd	0.39008942
211	0x3de3d6f6	0.11124985
212	0xbf4dd45f	-0.8040218
213	0x3f214b86	0.63005865
214	0x3f1f6303	0.62260455
215	0x3e5db95c	0.2165274
216	0xbeb7bb51	-0.358851
217	0x3bb9aa8b	0.0056660823
218	0xbe7c5f28	-0.24645674
219	0xbdead518	-0.11466426
220	0xbef905df	-0.48637292
221	0x3eaead81	0.34116748
222	0xbe98e110	-0.2985921
223	0xbf6738a8	-0.90320826
224	0x3f1d42ca	0.6143004
225	0xbed75477	-0.4205663
226	0xbe110d75	-0.1416529
227	0x3d60567f	0.05476999
228	0x3edeb017	0.4349372
229	0xbd9df4a0	-0.07712674
230	0xbe8381e2	-0.2568503
231	0xbe4214e9	-0.18953289
232	0x3ec49448	0.3839438
233	0xbd29a494	-0.04141672
234	0xbe0e0e53	-0.13872652
235	0xbea0c992	-0.31403786
236	0xbe5b3f75	-0.21410926
237	0x3e00211f	0.12512635
238	0x3ec6eaa3	0.3885089
239	0xbeb2438a	-0.34817153
240	0x3d718ebe	0.05897402
241	0xbf9199d2	-1.1375067
242	0x3eaf93db	0.34292492
243	0xbd004335	-0.031314094
244	0xbdc892b4	-0.097936064
245	0x3e6ab2f6	0.2291983
246	0xbf441307	-0.76591533
247	0x3d4e6e5a	0.05039821
248	0xbf18bd66	-0.59664
249	0x3f1c9f2f	0.61180395
250	0x3caca0db	0.021072796
251	0xbd960308	-0.07324797
252	0x3e9438e1	0.28949645
253	0x3d8c4bfc	0.0685043
254	0xbe74c9f4	-0.23905164
255	0xbe60251c	-0.21889156

fc1.bias f4 [256]
0	0xbe118d9f	-0.1421418
1	0x3e8991b4	0.26868975
2	0xbaabd485	-0.00131096
3	0x3e2e62b4	0.1702984
4	0xbdc286c7	-0.09498363
5	0xbed22774	-0.41045725
6	0x3e4258e5	0.18979223
7	0xbee235a4	-0.4418155
8	0x3e337d14	0.17528182
9	0xbe4635b3	-0.19356422
10	0x3d904627	0.070446305
11	0xbe0c2996	-0.13687739
12	0xbf1a973f	-0.60387033
13	0xbeb9bbdd	-0.3627614
14	0xbd9b1e12	-0.07574095
15	0xbe0f3a48	-0.13987076
16	0xbf237cca	-0.6386229
17	0xbe5a962e	-0.21346352
18	0x3d76543b	0.060138922
19	0x3e7bf257	0.24604164
20	0xbe989722	-0.29802805
21	0xbf1f13b4	-0.6213944
22	0x3e1ddd1d	0.1541638
23	0xbde4e8f6	-0.11177246
24	0xbe2f41cb	-0.17114942
25	0x3e90a793	0.2825285
26	0xbf3192d0	-0.69364643
27	0x3e9fa304	0.3117906
28	0x3e158efd	0.14605327
29	0x3e54db99	0.20786895
30	0x3a8fe488	0.0010978142
31	0x3d3044d4	0.04303439
32	0xbf19c029	-0.6005884
33	0x3d364dc2	0.04450775
34	0xbd6c09fc	-0.05762671
35	0xbb832a20	-0.0040028244
36	0xbe1172ba	-0.14203921
37	0x3e8c85af	0.27445742
38	0x3e8aa069	0.27075508
39	0xbd9cd8e9	-0.0765856
40	0x3cbd5375	0.023111084
41	0xbe872de7	-0.26402208
42	0xbec02813	-0.37530574
43	0xbe9ae105	-0.302498
44	0xbe1b64dd	-0.15175195
45	0x3e73e8ea	0.23819318
46	0xbef056aa	-0.4694112
47	0xbe910420	-0.2832346
48	0xbcce33d4	-0.025171198
49	0xbd239e1a	-0.0399457
50	0xbe8fd27d	-0.28090277
51	0xbeb726eb	-0.3577188
52	0xbe26edca	-0.16301647
53	0xbd2d5981	-0.042321686
54	0xbcf73f9f	-0.030181704
55	0xbc911335	-0.017709354
56	0xbed85cc7	-0.42258283
57	0xbe2c999d	-0.16855474
58	0xbe24ec59	-0.16105784
59	0xbe71531b	-0.23566858
60	0x3e0ad1b8	0.13556564
61	0xbee134f0	-0.439857
62	0x3e4fc9ce	0.20291826
63	0xbec5a7dc	-0.3860463
64	0xbd72acaa	-0.059246697
65	0xbe6fe4c4	-0.23427111
66	0x3db267f9	0.087112375
67	0xbecb7461	-0.39737228
68	0xbdcfe198	-0.101504505
69	0x3e5725fe	0.21010587
70	0x3e936707	0.2878954
71	0xbe8e47ee	-0.27789253
72	0xbeaa7c13	-0.33297786
73	0x3c0cf08a	0.008602271
74	0xbca9b65d	-0.02071684
75	0xbdb477e5	-0.088119306
76	0xbe88c859	-0.26715353
77	0xbeadcadb	-0.3394383
78	0xbd080849	-0.033211026
79	0xbe022c35	-0.12712176
80	0xbe74bdf6	-0.2390059
81	0xbea6a8d8	-0.32550693
82	0xbe54dd50	-0.20787549
83	0xbe409eb0	-0.18810534
84	0xbbc256ce	-0.005930758
85	0xbe0cc04d	-0.13745232
86	0x3e91816b	0.2841905
87	0xbe0abffc	-0.13549799
88	0x3c9ec028	0.019378737
89	0xbeb2d782	-0.34930044
90	0x3db50bc2	0.08840133
91	0xbef73f90	-0.48290682
92	0xbe8cf58b	-0.27531084
93	0xbdbf99a4	-0.093554765
94	0x3e12d52f	0.14339136
95	0xbe5200bd	-0.20508094
96	0xbe9d4ef4	-0.307243
97	0x3e5e036b	0.21680991
98	0x3e367e1f	0.17821549
99	0xbe02ffd3	-0.12792902
100	0xbdcac90b	-0.09901627
101	0xbc6bfc7d	-0.01440346
102	0xbeb12b59	-0.34603384
103	0xbe771d64	-0.24132305
104	0xbed98624	-0.42485154
105	0xbd3ec2d0	-0.046572506
106	0x3e53c61a	0.20681038
107	0x3dde8068	0.10864335
108	0x3e54f50c	0.20796603
109	0x3ea7e57c	0.3279227
110	0x3e2bf4d8	0.16792619
111	0xbe79706e	-0.24359295
112	0xbd832033	-0.06402626
113	0x3ceda650	0.029009968
114	0xbecf998d	-0.40546837
115	0xbee023df	-0.43777367
116	0xbeb38742	-0.3506413
117	0x3e0816a0	0.13289881
118	0xbd653a6a	-0.05596391
119	0x3d8b6ff0	0.0680846
120	0xbe8c5cf3	-0.27414665
121	0xbeb28f5a	-0.34874994
122	0xbdd24d00	-0.10268593
123	0x3d37441f	0.0447427
124	0xbcda559d	-0.026652152
125	0xbe37373b	-0.17892163
126	0x3d919c80	0.07109928
127	0x3c9118f0	0.017712086
128	0x38fc08c1	0.00012017927
129	0x3e4e2909	0.20132841
130	0xbeb11ade	-0.3459081
131	0x3caa1329	0.02076109
132	0xbe9bc3e0	-0.30422878
133	0xbe6a44e8	-0.22877848
134	0x3de9b3d2	0.11411251
135	0xbd5b79a0	-0.053582788
136	0xbe71a757	-0.23598991
137	0xbe8e1970	-0.27753782
138	0xbe7fc087	-0.24975787
139	0xbe7c8f46	-0.2466403
140	0xbe87c34b	-0.26516184
141	0xbe0ee6a1	-0.13955165
142	0xbdabf60c	-0.08396539
143	0xbe1d77da	-0.15377751
144	0xbe7de2d6	-0.24793562
145	0xbe86f1ae	-0.26356262
146	0xbe979f57	-0.29613754
147	0xbf0f20c9	-0.559094
148	0xbe6d2ca1	-0.23161556
149	0x3e2e3b39	0.17014779
150	0xbdaee80d	-0.08540354
151	0x3dc8aa19	0.097980686
152	0xbf1c55b8	-0.61068296
153	0xbeeffe7c	-0.46873844
154	0x3e388d9f	0.18022774
155	0xbf03c3ad	-0.5147045
156	0x3db27f42	0.08715679
157	0xbecebdf7	-0.40379307
158	0xbecc7183	-0.39930353
159	0xbe62a2fd	-0.22132488
160	0xbca8a05d	-0.02058428
161	0x3df6e4ba	0.12055345
162	0xbdc82ae1	-0.097738035
163	0xbd26faf6	-0.04076668
164	0x3e86b074	0.26306498
165	0x3de5f363	0.11228063
166	0x3e2183cf	0.15772937
167	0xbe76688e	-0.24063322
168	0x3e6fe708	0.23427975
169	0x3e92cc8e	0.28671688
170	0xbf06fbff	-0.52728266
171	0x3e6db057	0.232118
172	0xbf091c2d	-0.5355862
173	0x3d62e918	0.055398077
174	0xbe063cb4	-0.13109094
175	0x3e068cfd	0.1313972
176	0x3e1f3f01	0.15551378
177	0xbeea6fe8	-0.45788503
178	0xbbd83098	-0.0065975897
179	0x3d65807c	0.056030735
180	0xbe3f4f24	-0.18682534
181	0xbeb42a11	-0.35188344
182	0x3e0b1f46	0.13586149
183	0xbe05e2f2	-0.13074854
184	0xbee0f976	-0.43940324
185	0x3e658244	0.22412974
186	0xbe609047	-0.21930037
187	0x3ee58416	0.44827336
188	0x3e4b28da	0.19839802
189	0xbe505a6d	-0.20346995
190	0xbf04fdf7	-0.5195002
191	0xbe3089db	-0.17240088
192	0xbe0ce4e1	-0.13759185
193	0x3d193449	0.03740338
194	0xbdc3c708	-0.095594466
195	0x3d6ee8ac	0.058327362
196	0xbefd2711	-0.49443868
197	0xbe9c1729	-0.3048642
198	0xbd48cff5	-0.04902645
199	0x3d624ac9	0.055247102
200	0xbf032cb0	-0.5124006
201	0xbe795b0b	-0.24351136
202	0xbe11a03c	-0.14221281
203	0x3e44e033	0.1922615
204	0x3d195af7	0.037440266
205	0xbe6f6be5	-0.23381002
206	0xbe80c32b	-0.251489
207	0x3ddc527d	0.10757921
208	0xbe9a0229	-0.30079773
209	0xbeacba23	-0.3373576
210	0x3e00bb4f	0.12571453
211	0xbe4e54a8	-0.20149481
212	0xbe7aac31	-0.24479748
213	0xbe981b24	-0.29708207
214	0xbf1ad38e	-0.60479057
215	0xbe32c359	-0.17457332
216	0x3e443dca	0.19164196
217	0x3e8383ce	0.25686496
218	0xbd98ef61	-0.07467533
219	0xbe86f5c4	-0.2635938
220	0xbe804728	-0.25054288
221	0xbe9330c2	-0.28748137
222	0xbea1e799	-0.31622007
223	0xbed51787	-0.41619512
224	0xbe774c4f	-0.24150203
225	0xbcce65d9	-0.02519505
226	0x3e3900ef	0.18066762
227	0xbe95f0bc	-0.29285228
228	0xbdf69267	-0.12039643
229	0xbda5567b	-0.080731355
230	0xbd8f9515	-0.07010857
231	0xbece4984	-0.40290463
232	0x3d6d808e	0.057983927
233	0x3d3b66da	0.045752384
234	0xbd9be825	-0.076126374
235	0x3d4e08f4	0.050301507
236	0xbeb2a1ac	-0.3488897
237	0xbd0cebe2	-0.034404643
238	0xbecb7520	-0.39737797
239	0x3bcdfea3	0.0062864586
240	0x3e8cb6cf	0.27483222
241	0xbea85f50	-0.32885218
242	0xbec83630	-0.39103842
243	0xbc6d188a	-0.014471183
244	0xbdfab2e0	-0.12241149
245	0xbe1a4a49	-0.150674
246	0xbe16f334	-0.14741212
247	0x3d8b2ea6	0.06796007
248	0xbe560b0c	-0.20902652
249	0x3e7d87b3	0.24758796
250	0xbe2b0346	-0.16700467
251	0xbe0e26d8	-0.13882005
252	0xbcd6c537	-0.026217086
253	0xbe20d540	-0.15706348
254	0x3e565999	0.20932616
255	0xbeb3a36a	-0.35085613

fc2.weight f4 [256, 256]
0	0xbd042f86	-0.032271884
1	0x3c73301e	0.014843015
2	0x3d6079a0	0.05480349
3	0xbc9eb2f6	-0.019372445
4	0xbd1e9f93	-0.0387264
5	0xbd45e318	-0.048312277
6	0xbd3307ce	-0.043708615
7	0x3cc94473	0.024568772
8	0xbd908ff5	-0.070587076
9	0xbd475282	-0.04866267
10	0xbc743232	-0.014904546
11	0x3cdeac66	0.027181815
12	0xbdb61452	-0.088905945
13	0xbcebf21e	-0.028801974
14	0x3bf79820	0.0075559765
15	0x3d95dbfc	0.07317349
16	0xbba5c05f	-0.005058333
17	0x3cb5e334	0.022203065
18	0xbc9f5ba4	-0.019452877
19	0x3d83e46b	0.06440052
20	0xbd73722e	-0.059435062
21	0xbd304d7e	-0.043042652
22	0x39f55bf3	0.0004679855
23	0xbd1c132d	-0.038104225
24	0xbc943a4a	-0.0180942
25	0x3d12ac55	0.03580888
26	0xbd09217a	-0.03347919
27	0xbd9fd422	-0.07804133
28	0xbca27c2e	-0.019834604
29	0xbc2cbd55	-0.010543187
30	0xbc9f5934	-0.019451715
31	0x3d1cc693	0.038275313
32	0xbb2286f8	-0.0024799686
33	0xbd55708d	-0.05210929
34	0x3a0f7dbd	0.00054737536
35	0xbc673be9	-0.014113405
36	0xbd74b468	-0.05974236
37	0x3cff8095	0.031189242
38	0xbd92697a	-0.07149024
39	0xbd0cfe2f	-0.034422096
40	0x3d5d92a7	0.054094937
41	0xbd925a27	-0.071461014
42	0x3b3388a0	0.0027394667
43	0x3d758a6b	0.05994646
44	0x3ce73ab8	0.028226241
45	0xbbb32682	-0.005467237
46	0xbc6ae338	-0.0143364
47	0xbd45ad1c	-0.048260793
48	0x3c87065e	0.016482528
49	0x3cc67203	0.024224287
50	0x3d442974	0.047891095
51	0xbc9be859	-0.01903169
52	0xbc01c149	-0.007919618
53	0xbc2b79f5	-0.010466089
54	0xbcf8f38c	-0.03038957
55	0xbc5c35f3	-0.013440597
56	0xbd2b073b	-0.041754942
57	0x3bfc6b7a	0.007703242
58	0x3d09adfd	0.033613194
59	0xbdd8ba3b	-0.10582396
60	0x3cad57d4	0.021160044
61	0xbd8c35c7	-0.06846195
62	0xba9103ed	-0.0011063792
63	0xb9d48059	-0.00040531417
64	0x3d75576c	0.059897825
65	0xbd71355c	-0.058888778
66	0xbe11ab05	-0.14225395
67	0x3ae7aa00	0.0017674565
68	0x3d224411	0.039615694
69	0x3c19f0a7	0.009395755
70	0x3c1feb1c	0.009760644
71	0x3c116290	0.008873597
72	0xbc8c1db5	-0.01710401
73	0x3c9e3d68	0.01931639
74	0x3d2b402c	0.041809246
75	0xbd236cfd	-0.03989886
76	0xbd5048b8	-0.0508506
77	0xbd765092	-0.06013543
78	0xbd34d5bc	-0.044149145
79	0xbab88bc0	-0.0014079735
80	0x3d5644bc	0.052311644
81	0xbd77c320	-0.06048882
82	0x3c1a2456	0.009408077
83	0xbcff5a6c	-0.031171046
84	0xbe0b0e06	-0.13579568
85	0xbbe05498	-0.006846022
86	0x3d7eb5ca	0.062185086
87	0xbd562856	-0.05228456
88	0xbd724f81	-0.059157852
89	0x3abbe1c0	0.0014334247
90	0x3cd7e07a	0.026352156
91	0xbd889657	-0.066693
92	0x3c5cb215	0.013470192
93	0xbd8c6eb1	-0.0685705
94	0xbd7cd9d2	-0.061731167
95	0xbc69df80	-0.014274478
96	0xbc5a3c70	-0.0133200735
97	0x3cffc32c	0.031220995
98	0x3cd2a0ad	0.025711382
99	0x3d1efe71	0.038816873
100	0xbdb19005	-0.08670048
101	0xbd6a53e6	-0.057208918
102	0xbd9bfd38	-0.07616657
103	0x3ba9de83	0.005183996
104	0xbcbd13a1	-0.023080649
105	0xbd3b5cf4	-0.045742944
106	0x3d51a5a2	0.05118335
107	0xbd7eabe3	-0.062175643
108	0xbd2679a3	-0.040643346
109	0x3d0a0d83	0.033704292
110	0x3c98e2f1	0.018662902
111	0xbe28b003	-0.16473393
112	0xbd3bbcd2	-0.04583437
113	0xbd13d0c2	-0.03608776
114	0xbdbdb25b	-0.09262534
115	0x3d0b5b08	0.03402236
116	0x3ce3f031	0.027824493
117	0xbc4ed310	-0.012623563
118	0xbda8c444	-0.0824056
119	0x3cf988cb	0.030460736
120	0xbd516d4a	-0.051129617
121	0xbd066e6c	-0.03282015
122	0x3c862283	0.016373878
123	0xbd1b90ef	-0.037980016
124	0x3c430688	0.011903413
125	0x3d526d36	0.051373683
126	0xbde71573	-0.11283388
127	0xbc67a150	-0.014137581
128	0x3d8bd8e6	0.068284795
129	0x3ca4c262	0.02011222
130	0xbd348702	-0.044074066
131	0xbcb286b4	-0.021792747
132	0xbd5cdb58	-0.05392012
133	0xbba11caa	-0.004916747
134	0xbd822c06	-0.06356053
135	0xbcd4db5e	-0.025983509
136	0xbd8b0304	-0.067876846
137	0x3d5b516e	0.053544454
138	0xbe3b4ce5	-0.18291052
139	0xbc52085a	-0.012819374
140	0x3cb37e37	0.02191077
141	0xbce175f9	-0.027522074
142	0xbd64b119	-0.055832956
143	0xbe2250c9	-0.1585113
144	0x3ce2f588	0.027704969
145	0xbd908ba6	-0.07057886
146	0x3b165360	0.002293788
147	0xbd374b55	-0.044749577
148	0xbd56779b	-0.05236016
149	0xbc547a80	-0.012968659
150	0xbd205ff3	-0.039154004
151	0x3d448aed	0.047984052
152	0x3c6981df	0.014252155
153	0xbcbef4a4	-0.023310013
154	0xbd24b7d0	-0.04021436
155	0xbd866204	-0.06561664
156	0xbd5d99ca	-0.054101743
157	0xbd2703b6	-0.040775023
158	0x3bdc3980	0.0067207217
159	0x3cf8738c	0.030328535
160	0x3d4872f5	0.048937757
161	0xbcea8cb4	-0.028631546
162	0xbd0de1bb	-0.0346391
163	0xbd686687	-0.056738403
164	0xbc915a61	-0.017743291
165	0xbc1de5d0	-0.009637311
166	0xbdc6b754	-0.09702936
167	0xbd6a6382	-0.057223804
168	0x3c061471	0.008183585
169	0xbcc37b57	-0.023862524
170	0xbd80ea8a	-0.06294735
171	0xbd0aaed7	-0.033858147
172	0xbdaa0d5a	-0.08303328
173	0xbd7d8686	-0.06189587
174	0xbd437e03	-0.047727596
175	0xbd29077c	-0.041266903
176	0xbd230759	-0.03980193
177	0x3d3edbd0	0.04659635
178	0xbd8c3240	-0.06845522
179	0x3d2e6031	0.042572204
180	0xbd911cb6	-0.07085554
181	0x3bed7a30	0.007247232
182	0xbd0d580c	-0.034507796
183	0xbd415204	-0.047197357
184	0xbb4ba115	-0.0031071354
185	0x3d30389d	0.04302274
186	0xbe549e57	-0.20763527
187	0x3d613ab4	0.054987624
188	0xbc9c28a4	-0.019062348
189	0xbd79d11b	-0.060990434
190	0xbb0740dd	-0.0020638027
191	0x3d5986cd	0.05310707
192	0x3d1d8c3a	0.03846381
193	0x3cab7aa2	0.0209325
194	0xbdcc1b76	-0.09966175
195	0xbc509090	-0.012729779
196	0x3c28afac	0.01029579
197	0xbce9579c	-0.028484158
198	0x3c961709	0.01832153
199	0xbd01adb1	-0.031659786
200	0xbd793f09	-0.06085113
201	0xbd8bac83	-0.068200134
202	0xbd3f2849	-0.04666928
203	0x3b219575	0.0024655734
204	0xbd96bc4c	-0.073601335
205	0xbcdee4ba	-0.027208675
206	0xbc75b6ba	-0.014997179
207	0x3c6782c0	0.014130294
208	0xbd98d823	-0.074631
209	0x39c1e8b9	0.0003698522
210	0xbdbb2404	-0.09137729
211	0xbd442dec	-0.047895357
212	0x3cd136f4	0.025538899
213	0xbd9239a8	-0.07139903
214	0x3c233c73	0.009963143
215	0x3cb73037	0.022361858
216	0xbd422b63	-0.047404658
217	0xbcf46a8a	-0.029835958
218	0xbd8f4431	-0.06995428
219	0xbc2828bc	-0.010263618
220	0xb91dfa00	-0.00015065819
221	0xbd353265	-0.044237513
222	0xbd37e35c	-0.04489456
223	0xbdae2611	-0.08503354
224	0xbd69854d	-0.05701189
225	0xbcc86a85	-0.024464855
226	0x3c16f64a	0.009213993
227	0xbd7756ae	-0.0603854
228	0xbc437371	-0.011929379
229	0xbc5e626c	-0.01357327
230	0x3d372ebe	0.04472231
231	0xbdafe0bb	-0.08587786
232	0xbd6036bb	-0.054739695
233	0x3aff4429	0.0019475269
234	0xbdf6517b	-0.1202726
235	0xbd35bb97	-0.044368353
236	0x3aa18fe6	0.001232621
237	0xbd43fe09	-0.04784969
238	0x3c1dd421	0.009633095
239	0xbd3337f3	-0.04375453
240	0x3d7bf3c4	0.06151177
241	0xbd93299d	-0.071856715
242	0xbd5b49c3	-0.05353714
243	0x3d475c4c	0.048672006
244	0x3b255bf4	0.002523181
245	0xbd7c6e9f	-0.061628934
246	0x3bdde05b	0.00677113
247	0xbd1f0640	-0.03882432
248	0xbcb0491d	-0.021519238
249	0x3c366299	0.011131906
250	0xbcec1aa1	-0.028821291
251	0x3d61e424	0.055149212
252	0xbd83a5ba	-0.06428094
253	0xbd903d9e	-0.070430025
254	0xbc4d6d6d	-0.012538296
255	0x3cb0261c	0.021502547

fc2.bias f4 [256]
0	0xbd71d110	-0.05903727
1	0xbdc5f062	-0.0966499
2	0xbdce5d6e	-0.10076414
3	0xbc9b8172	-0.018982623
4	0xbe8d608a	-0.27612716
5	0xbd39ec63	-0.04539145
6	0xbe1aa8e6	-0.15103492
7	0xbd6d0f82	-0.057876118
8	0xbc606275	-0.013695349
9	0xbe59a112	-0.2125285
10	0x3e62e51b	0.2215771
11	0xbd5dbce8	-0.054135233
12	0xbda796bf	-0.081830494
13	0xbe29510e	-0.16534826
14	0xbd233410	-0.039844573
15	0xbd2eb0f9	-0.042649243
16	0x3e577749	0.21041597
17	0xbd905aeb	-0.07048591
18	0x3d1d1b92	0.03835637
19	0xbe422948	-0.1896106
20	0xbda4960a	-0.0803643
21	0xbe795d69	-0.2435204
22	0x3dcbc018	0.09948748
23	0xbd3c448c	-0.04596381
24	0x3ce0be8c	0.02743461
25	0xbc5d2c06	-0.013499266
26	0x3d1e96b2	0.038717933
27	0xbdfc6801	-0.12324525
28	0x39b67450	0.00034800405
29	0x3ae32b6a	0.0017331664
30	0x3d24be72	0.040220685
31	0xbc783c9c	-0.015151169
32	0xbdfa3eaf	-0.12218987
33	0xbd03e3e0	-0.03219974
34	0xbb0b239d	-0.0021230944
35	0x3d012f5c	0.031539306
36	0x3df49742	0.11942913
37	0xbdfc2352	-0.12311424
38	0xbd861c1f	-0.065483324
39	0xbd0eff54	-0.03491147
40	0xbe10101d	-0.14068647
41	0xbd8ffeee	-0.07031046
42	0xbc7c7a26	-0.015409982
43	0x3e3fff32	0.18749693
44	0xbca9cec4	-0.020728476
45	0xbba69148	-0.005083237
46	0xbe165f1d	-0.1468472
47	0xbd5daf0f	-0.054122027
48	0xbc67d6c3	-0.014150324
49	0xbd0c0c2d	-0.0341913
50	0xbc394cc3	-0.011309805
51	0x3bd2a986	0.0064289
52	0xbea2de6b	-0.31810316
53	0xbac57c34	-0.0015066923
54	0xbdf4b240	-0.11948061
55	0xbd2619cb	-0.04055194
56	0x3d0c01ae	0.03418129
57	0x3e20223b	0.15638058
58	0xbdfff9a4	-0.12498787
59	0xbd4d2a5d	-0.05008923
60	0x3e01e3b9	0.12684526
61	0xbd638610	-0.055547774
62	0xbd666b45	-0.056254644
63	0xbd3ab724	-0.045584813
64	0xbe3e652f	-0.18593286
65	0xbccc879f	-0.024967013
66	0xbd23419b	-0.039857488
67	0xbd224322	-0.039614804
68	0xbd2491c6	-0.040178083
69	0xbd9254f7	-0.07145112
70	0xbdf2557c	-0.11832711
71	0x3e03dac1	0.12876417
72	0xbddfa834	-0.10920754
73	0x3d5fd985	0.054650802
74	0xbe1a1991	-0.15048815
75	0x3d9c68c7	0.07637172
76	0xbb871f19	-0.00412358
77	0xbe19f421	-0.15034534
78	0xbc97da31	-0.018536659
79	0xbe8a070f	-0.2695851
80	0xbdb390ff	-0.0876789
81	0xbd5b133e	-0.053485148
82	0xbd81787d	-0.063218094
83	0x3d287b84	0.04113342
84	0xbc9f48db	-0.01944392
85	0x3db77818	0.08958453
86	0xbd1ed858	-0.03878054
87	0xbd258d12	-0.04041774
88	0xbccaf570	-0.024775237
89	0xbd692501	-0.056920055
90	0xbdb03512	-0.08603872
91	0xbd917c80	-0.071038246
92	0x3e49296e	0.1964471
93	0xbe22d656	-0.15902075
94	0xbd52dfc9	-0.05148295
95	0xbd5c2c4f	-0.053753193
96	0xbe1ac6d8	-0.15114915
97	0xbe1f6fcc	-0.15569991
98	0xbd649871	-0.055809442
99	0x3ca5ecf1	0.020254584
100	0xbe7b2b67	-0.24528275
101	0xbdc5d6db	-0.09660121
102	0x3e0c48f4	0.13699704
103	0xbe89ab99	-0.2688873
104	0xba989ff9	-0.0011644355
105	0xbd3ccb8c	-0.046092555
106	0xbd99d21b	-0.075107776
107	0xbd9b6623	-0.075878404
108	0xbe17d304	-0.1482659
109	0xbdb4a502	-0.08820535
110	0x3d24b8fb	0.040215474
111	0xbdce9e28	-0.1008876
112	0xbe065a3d	-0.1312036
113	0xbd88122f	-0.06644093
114	0xbe5fb5bf	-0.21846674
115	0xbdaaf4a5	-0.083474435
116	0xbe989544	-0.2980138
117	0x3b172895	0.002306496
118	0xbdeb062e	-0.11475788
119	0xbdb41b21	-0.08794237
120	0xbd60ef29	-0.05491558
121	0xbd5b093d	-0.053475607
122	0xbd36f50c	-0.04466729
123	0xbe816e5c	-0.2527951
124	0xbcdec4a5	-0.027193377
125	0xbe61aaee	-0.22037861
126	0xbd9f2e08	-0.07772452
127	0xbdd8ea5c	-0.105915755
128	0x3d3e0b0d	0.046397258
129	0xbd11dbb4	-0.035609916
130	0xbdedc3a5	-0.11609582
131	0xbd6663b4	-0.056247428
132	0x3e33367d	0.17501254
133	0xbd14877e	-0.036262028
134	0xbabc40fe	-0.0014362631
135	0x3dacff52	0.08447136
136	0xbddfa87a	-0.10920806
137	0xbe5b4f45	-0.21416958
138	0x3ccbb9d6	0.024868887
139	0x3b446ee5	0.0029973325
140	0xbd9452ca	-0.07242353
141	0x3e147898	0.14499128
142	0xbd70fd8e	-0.05883556
143	0xbe2eb5af	-0.17061494
144	0xbe690f1a	-0.22759667
145	0xbe2c4c69	-0.16826023
146	0xbd153b7a	-0.036433674
147	0x3db6df5b	0.089293204
148	0xbe43314e	-0.19061777
149	0x3cf4c222	0.029877726
150	0xbdac9df4	-0.08428565
151	0xbe82562d	-0.25456372
152	0xbd3255c3	-0.04353882
153	0xbe96483f	-0.29351994
154	0xbd3dbb27	-0.04632106
155	0xbd307c83	-0.043087494
156	0xbd3d9490	-0.04628426
157	0xbd1ca627	-0.038244393
158	0xbd72190c	-0.059105918
159	0xbe4665ad	-0.19374724
160	0xbd7a1e79	-0.061064217
161	0xbd9dbd8b	-0.07702168
162	0xbd1079fd	-0.035272587
163	0xbdc94d35	-0.09829179
164	0x3dc4edba	0.09615655
165	0xbab881fd	-0.0014076825
166	0xbc9a6d32	-0.018850897
167	0x3bb25db7	0.0054433006
168	0xbd7ad967	-0.061242487
169	0xbd95db5f	-0.07317232
170	0xbd794106	-0.060853027
171	0xbe135153	-0.14386491
172	0xbe92661b	-0.28593525
173	0xbd8de334	-0.06928101
174	0xbe1c3d24	-0.15257698
175	0x39a513e1	0.00031486063
176	0xbe888a42	-0.26667982
177	0xbc1a3e54	-0.009414274
178	0xbd5fb266	-0.054613493
179	0xbe03f421	-0.12886097
180	0x3c02d4fe	0.007985352
181	0xbca503ca	-0.020143408
182	0xbd8cc754	-0.06873956
183	0xbe7729d7	-0.24137054
184	0xbe82ea59	-0.25569418
185	0xbd93c4c5	-0.07215265
186	0xbda181b9	-0.07886071
187	0xbca74e4f	-0.020423083
188	0x3e3f5f3f	0.18688677
189	0xbce15c0b	-0.02750971
190	0xbdce8451	-0.10083831
191	0xbd946be4	-0.07247141
192	0x3dc9bc76	0.09850399
193	0xbd33447c	-0.043766484
194	0xbcad8a7d	-0.0211842
195	0xbe994fe7	-0.29943773
196	0xbd4aa2f1	-0.0494718
197	0xbcfbffa0	-0.03076154
198	0x3d7f433a	0.06231997
199	0xbd298808	-0.041389495
200	0xbc9e05aa	-0.01928981
201	0xbd9b5b05	-0.0758572
202	0xbe07b9a0	-0.13254404
203	0xbe42a9cc	-0.19010085
204	0xbde53b6f	-0.11192977
205	0xbdda34f1	-0.10654629
206	0x3cb9aff5	0.02266691
207	0xbd65cb76	-0.05610224
208	0xbd83c5bf	-0.064342014
209	0x3bbc67e0	0.0057496876
210	0xba8f9946	-0.0010955713
211	0xbd5b0d41	-0.053479437
212	0x3dbf0947	0.093279414
213	0xbc0ea1d8	-0.008705579
214	0xbc5a8f69	-0.013339856
215	0xbe2e8869	-0.17044224
216	0x3d516bd3	0.05112822
217	0x3a023fd4	0.00049686176
218	0xbd663403	-0.056201946
219	0xbd801352	-0.06253685
220	0xbc1551eb	-0.009113769
221	0xbe350c5f	-0.176805
222	0xbd05282c	-0.032509014
223	0xbd0a1726	-0.033713482
224	0xbc72e11b	-0.014824177
225	0x3e80ccd9	0.25156286
226	0xbcc11398	-0.023568913
227	0xbd3fbfd5	-0.046813805
228	0xbcb6886c	-0.022281848
229	0x3de7b82f	0.11314427
230	0xbe5b6f60	-0.21429205
231	0x3dac9c11	0.08428205
232	0xbe43cf5c	-0.1912207
233	0x3c1145a5	0.008866702
234	0xbe8def7e	-0.2772178
235	0xbe5825c5	-0.21108158
236	0xbe8a3237	-0.26991436
237	0xbddc0d98	-0.1074478
238	0xbded994c	-0.11601505
239	0xbd8163b9	-0.06317849
240	0xbdcce992	-0.100054875
241	0xbe105c4e	-0.14097711
242	0xbcf19c5a	-0.0294935
243	0xbd2a6fb8	-0.04161045
244	0xbcd55236	-0.026040178
245	0xbd8dfeb5	-0.06933347
246	0x3d2151c3	0.039384615
247	0xbd5d51d9	-0.054033134
248	0xbe03b343	-0.12861352
249	0xbd03cc8a	-0.032177486
250	0xbe5fb605	-0.21846779
251	0xbdb47376	-0.08811085
252	0xbcf02984	-0.029316671
253	0xbd5adb53	-0.05343182
254	0xbcef2f3b	-0.029197326
255	0x3d8b9019	0.06814594

fc_mean.weight f4 [1, 256]
0	0x3b4be97d	0.0031114512
1	0xbcf9cbe1	-0.030492725
2	0x3c47bdaf	0.01219122
3	0xbc78f926	-0.01519612
4	0x3f879c6e	1.0594614
5	0x3be14d61	0.0068756794
6	0xbe240da9	-0.16020836
7	0x3d64dde9	0.055875693
8	0x3d84bf50	0.064818025
9	0xbe12ccee	-0.14335987
10	0x3e30f19e	0.1727967
11	0xbf23ddaf	-0.6401014
12	0xbf39bfdf	-0.725584
13	0x3f7039db	0.9383828
14	0xbc856811	-0.016284974
15	0xbceccd75	-0.028906563
16	0x3f835f48	1.0263453
17	0x3c113ed6	0.008865079
18	0xbf3958ea	-0.724013
19	0xbd89a358	-0.067206085
20	0xbc0bbca6	-0.008528864
21	0x3ec7a112	0.38990074
22	0x3e4c7864	0.199678
23	0x3d38605c	0.04501377
24	0xbec09d21	-0.3761988
25	0xbaf3d2dc	-0.001860227
26	0x3f209c3f	0.6273841
27	0xbeb11cb3	-0.34592208
28	0xbd3543bf	-0.04425406
29	0xbcbdb6b0	-0.023158401
30	0x3f1fa104	0.62355065
31	0xbcd5679b	-0.02605038
32	0x3ebe34ef	0.3714976
33	0x3c2b63a4	0.010460768
34	0x3e221ee9	0.15832104
35	0x3d9e094a	0.077166155
36	0xbf325ab3	-0.69669646
37	0xbf3cc490	-0.7373743
38	0xbd088907	-0.033333804
39	0x3d7722ca	0.06033591
40	0xbea121fe	-0.31471246
41	0xbc168db1	-0.009189055
42	0xbd289c9e	-0.041164987
43	0xbee9fcdf	-0.45700738
44	0xbcdf5235	-0.027260879
45	0x3c8bfa32	0.017087076
46	0xbdc5f16e	-0.0966519
47	0x3effa5c7	0.49931166
48	0xbd30b532	-0.04314155
49	0xbe254f60	-0.1614356
50	0x3f08bc01	0.5341187
51	0x3d8b732d	0.068090774
52	0xbf1668fc	-0.58753943
53	0x3ce1d9e9	0.027569728
54	0xbf14a90b	-0.5807044
55	0xbcfadace	-0.030621912
56	0xbe87e66f	-0.26542994
57	0x3f1d07ba	0.61339915
58	0x3e898864	0.2686187
59	0xbe6a8617	-0.22902714
60	0xbe123f71	-0.14282013
61	0xbd449aaa	-0.04799906
62	0x3d295688	0.04134229
63	0xbe19a446	-0.15004072
64	0xbdedf609	-0.11619193
65	0xbcb77539	-0.022394763
66	0xbd0ce76e	-0.034400396
67	0x3f0a7e65	0.5409911
68	0xbd16df75	-0.0368342
69	0xbc5b9ff0	-0.013404831
70	0xbd248067	-0.040161517
71	0x3e049851	0.12948729
72	0x3e29eca8	0.16594183
73	0xbea3ab12	-0.31966454
74	0xbdf06770	-0.11738479
75	0x3d856fcc	0.06515464
76	0x3b6b6762	0.0035919775
77	0xbf2989af	-0.66225713
78	0xbcd35ff5	-0.025802592
79	0x3f20334d	0.6257828
80	0x3f23ad63	0.6393644
81	0x3bef9967	0.007311988
82	0xbe17f2a7	-0.14838658
83	0xba9ecba4	-0.0012115133
84	0x3e04165b	0.12899153
85	0xbb72c09c	-0.0037041074
86	0xbb27319a	-0.0025511743
87	0x3c05df80	0.008170962
88	0xbc0e8a21	-0.008699925
89	0xba47636c	-0.00076060626
90	0xbd2c51a4	-0.042070046
91	0x3c6fd65c	0.01463851
92	0x3e50792a	0.2035872
93	0xbd81f990	-0.063464284
94	0x3d34aa03	0.04410745
95	0xbcf7ec5e	-0.030264076
96	0x3e00a1c2	0.12561706
97	0x3e1b9714	0.1519435
98	0x3c769961	0.015051217
99	0xbefdac1b	-0.4954537
100	0xbbb2f561	-0.0054613804
101	0x3e1649fb	0.14676659
102	0x3f14dd58	0.58150244
103	0x3ef4b3a9	0.4779332
104	0xbf225f4a	-0.6342665
105	0x3f008211	0.50198466
106	0x3c64e21d	0.013969925
107	0xbd1df6d7	-0.038565483
108	0xbed49dce	-0.41526645
109	0x3f5eea49	0.8707624
110	0x3dee5f2f	0.116392486
111	0xbdc5b3dd	-0.09653447
112	0xbecab97c	-0.39594638
113	0x3edda7d8	0.43292117
114	0xbf3458e7	-0.70448154
115	0x3e448d21	0.19194461
116	0x3ec0f621	0.3768778
117	0x3ad2449f	0.0016042179
118	0x3d36f698	0.044668764
119	0xbd46567e	-0.04842233
120	0x3ced812f	0.028992264
121	0x3b9f20ba	0.004856196
122	0x3f435689	0.7630392
123	0xbf11f0d7	-0.5700812
124	0x3b883469	0.0041566384
125	0x3fc765d6	1.5577953
126	0x3eabe8b9	0.3357599
127	0xbcb4513e	-0.022011396
128	0xbc8c0177	-0.017090542
129	0xbc457a8b	-0.012053142
130	0xbe7ffbc2	-0.24998382
131	0xbc6a8136	-0.014313033
132	0x3e1d329d	0.15351339
133	0x3dfd8104	0.123781234
134	0x3d184b76	0.03718134
135	0xbd8ce36f	-0.06879317
136	0x3eb7828c	0.35841787
137	0xbf829c1d	-1.0203892
138	0x3d2202e1	0.039553527
139	0x3f8b3db2	1.0878203
140	0xbd1e3cb6	-0.038632117
141	0x3f171914	0.5902264
142	0x3b9e8112	0.0048371637
143	0x3c75efc3	0.015010777
144	0x3ec16888	0.37775064
145	0x3e26d292	0.16291264
146	0x3cfa4bd4	0.030553736
147	0xbf09f821	-0.5389424
148	0x3f1625a2	0.58651173
149	0x3e568faf	0.20953248
150	0xbd05727f	-0.032579895
151	0x3f38c259	0.7217155
152	0x3e1131ad	0.14179106
153	0xbe012ebe	-0.12615487
154	0xb7b2a941	-2.1298069e-05
155	0x3ce51e53	0.027968561
156	0x3b935244	0.004495891
157	0xbed9b007	-0.4251711
158	0x3d4e2b82	0.05033446
159	0x3f676e83	0.90403
160	0x3d0e01ad	0.034669567
161	0x3db0415c	0.08606216
162	0xbc2a9757	-0.010412059
163	0x3e82a8c1	0.25519374
164	0xbf5182b2	-0.8184005
165	0xbc2deb1a	-0.010615135
166	0xbd51ff15	-0.051268656
167	0xbb550366	-0.0032503246
168	0x3de10075	0.10986415
169	0x3b1e2c00	0.0024135113
170	0xbe35fad5	-0.17771466
171	0x3d0c0ff3	0.034194898
172	0x3e65ef00	0.22454453
173	0x3c0734b0	0.008252308
174	0xbf048909	-0.517716
175	0x3a43cdb4	0.0007469312
176	0xbfa841c5	-1.3145071
177	0xbd00ce50	-0.031446755
178	0x3c978b9f	0.018499194
179	0x3dc21b90	0.094779134
180	0xbba154a6	-0.004923421
181	0xbdfcb266	-0.12338714
182	0x3dbc4304	0.0919247
183	0x3eddc6cc	0.43315732
184	0x400892f2	2.1339688
185	0xbd2ccfad	-0.042190243
186	0xbafe0fba	-0.0019383349
187	0xb9f240c6	-0.00046206097
188	0x3ee9c85d	0.45660678
189	0x3d7b5e9d	0.061369527
190	0x3fa81f34	1.3134522
191	0x3e9ab822	0.30218607
192	0x3c7e3129	0.01551465
193	0xbb9d7d04	-0.004806163
194	0xbc9f2a9d	-0.0194295
195	0xbf379ea4	-0.7172644
196	0x3cbd5c88	0.023115411
197	0x3ccd1f03	0.025039202
198	0xbf398aea	-0.7247759
199	0x3fb1abfb	1.3880609
200	0xbcd2ebe2	-0.025747243
201	0xbd0f844b	-0.035038274
202	0x3e847277	0.2586858
203	0x3eb63a49	0.35591343
204	0x3ec5377e	0.385189
205	0x3f89ea2a	1.0774586
206	0x3cb5f219	0.022210168
207	0xbca26068	-0.01982136
208	0x3c32fb3e	0.010924159
209	0x3e118cb7	0.14213835
210	0xbba049b5	-0.004891599
211	0xbcf0cc24	-0.029394217
212	0x3f7459fd	0.9544981
213	0x3dcdec5f	0.1005485
214	0x3e850677	0.25981495
215	0xbd92abd8	-0.07161683
216	0xbdba8893	-0.09108081
217	0x3f19b578	0.60042524
218	0x3e52625e	0.20545337
219	0xbc1653ba	-0.009175235
220	0x3f23d691	0.6399928
221	0x3fa33ece	1.2753541
222	0x3d8cffdf	0.06884741
223	0x3bf28fe0	0.007402405
224	0xbb554b9a	-0.0032546283
225	0x3e0c0e56	0.13677344
226	0xbe369960	-0.17831945
227	0x3ed2b460	0.4115324
228	0xbce07b25	-0.02740247
229	0x3f4c3fc4	0.797848
230	0xbd6ff740	-0.058585405
231	0xbf89c997	-1.0764645
232	0xbe65634d	-0.22401161
233	0x3efe0930	0.49616385
234	0x3e21d354	0.15803272
235	0x3f7fb05b	0.9987847
236	0x3e385055	0.17999394
237	0xbddccbdf	-0.10781073
238	0xbe529793	-0.20565633
239	0xbaeb5d98	-0.001795697
240	0xbcdcd13c	-0.02695524
241	0xbd4d0345	-0.050051946
242	0xba4ef94c	-0.00078954245
243	0xbe506e72	-0.20354632
244	0xbd42dd88	-0.04757455
245	0xbd1368ba	-0.035988547
246	0xbeb30494	-0.3496443
247	0xbcb5b550	-0.022181183
248	0x3edcadf4	0.43101466
249	0xbd0526d9	-0.03250775
250	0x3fb4bb07	1.4119576
251	0x3d12625b	0.03573833
252	0xbc63fe1a	-0.013915563
253	0x3ed41f8e	0.41430324
254	0xbd6068e2	-0.054787524
255	0xbdf1dcff	-0.1180973

fc_logstd.weight f4 [1, 256]
0	0xbd96954b	-0.07352694
1	0x3e2d57fe	0.16928098
2	0x3d5a8124	0.053345814
3	0xbca8e0ce	-0.020615008
4	0x3e4e7670	0.20162368
5	0x3c033b2a	0.008009711
6	0xbce55e0c	-0.027998947
7	0xbcd9b5f0	-0.026576012
8	0x3d84713f	0.064669125
9	0xbe7ac2a6	-0.24488315
10	0xbde44617	-0.11146181
11	0xbd07fc47	-0.033199575
12	0x3de2f090	0.1108104
13	0x3e9e5552	0.3092447
14	0xbb1a96e2	-0.0023588468
15	0xbe7bf5d5	-0.24605496
16	0x3e1d7d41	0.15379812
17	0x3abbc1da	0.001432474
18	0x3e6bbcf7	0.23021303
19	0x3f2eccea	0.68281424
20	0xbd33e00b	-0.043914836
21	0xbd5c10ff	-0.053727146
22	0x3def2499	0.11676902
23	0xbce5e737	-0.028064353
24	0xbe8ace01	-0.27110294
25	0xbc00fa46	-0.00787217
26	0xbeb4bbcd	-0.3529953
27	0x3ddc46fe	0.10755728
28	0xbea49d00	-0.32151031
29	0x3d4a9c53	0.04946549
30	0xbd10d009	-0.035354648
31	0x3cbe50ee	0.02323195
32	0x3ddce94c	0.10786685
33	0xbc868626	-0.016421389
34	0x3e618185	0.22022064
35	0x3e80d8ae	0.25165313
36	0x3ea67927	0.32514307
37	0x3eef24d2	0.4670778
38	0xbd2ff711	-0.04296023
39	0x3d9255db	0.07145282
40	0xbdebbd93	-0.11510768
41	0xbc4f2a1d	-0.012644318
42	0xbd415852	-0.04720337
43	0xbe39ac9c	-0.18132252
44	0xbc8d94ff	-0.017282961
45	0xbca328a1	-0.019916834
46	0xbd3f4283	-0.04669429
47	0x3c68dee1	0.014213295
48	0xbd006099	-0.031342123
49	0x3d0edf62	0.034881003
50	0xbde2d919	-0.11076564
51	0xbf1fc551	-0.62410456
52	0xbdb53c44	-0.088493854
53	0xbc9649a7	-0.018345667
54	0xbc68eaac	-0.014216106
55	0x3d2688fc	0.040657982
56	0xbed658fa	-0.4186476
57	0x3de2c051	0.11071838
58	0x3c00846b	0.007844071
59	0x3db602a7	0.08887225
60	0x3f1c6397	0.6108946
61	0xbc24a38b	-0.010048757
62	0x3ba85445	0.005136999
63	0x3df44681	0.1192751
64	0xbd6d17c2	-0.057883985
65	0xbcb181b8	-0.0216683
66	0xbd4c253c	-0.049840197
67	0x3daa94ff	0.083292
68	0xbd062fb8	-0.032760352
69	0xbca5b475	-0.02022765
70	0xbe03d731	-0.12875058
71	0xbdd4067b	-0.103527986
72	0x3ea07bfa	0.31344587
73	0x3dc0fd86	0.09423356
74	0xbd3e3ed1	-0.046446625
75	0x3e86d623	0.26335248
76	0x3d4177e8	0.047233492
77	0xbe206af7	-0.15665804
78	0xbe642b71	-0.22282197
79	0x3e669ed7	0.2252153
80	0xbd8cfa18	-0.06883639
81	0xbd428c84	-0.047497287
82	0xbe03594e	-0.12827036
83	0xbdfe7f0e	-0.124265775
84	0x3e151aa2	0.14560941
85	0xbe90db14	-0.28292143
86	0xbf148b4e	-0.5802506
87	0xbbda1c87	-0.0066562328
88	0xbc19471d	-0.009355334
89	0xbcb342d6	-0.021882456
90	0xbd2ba15e	-0.04190194
91	0x3c782b24	0.015147004
92	0xbd7624a4	-0.060093537
93	0xbeff606b	-0.4987825
94	0x3d87f1b6	0.066378996
95	0xbc126d98	-0.008937262
96	0x3e68353d	0.22676559
97	0x3db31492	0.08744158
98	0xbb47b559	-0.0030473082
99	0xbe5cdbf6	-0.21568283
100	0xbf08ce21	-0.5343953
101	0xbe26de1c	-0.16295666
102	0x3e57d77e	0.21078297
103	0xbda06f05	-0.07833675
104	0xbd326b74	-0.043559507
105	0x3edded6c	0.433452
106	0x3c9e082e	0.01929101
107	0xbd487897	-0.04894313
108	0x3e3ddd46	0.1854144
109	0x3e93a6f1	0.28838304
110	0x3e964d41	0.29355815
111	0x3e15d3b9	0.14631547
112	0x3e4a99de	0.19785258
113	0x3e66599a	0.22495118
114	0xbe048192	-0.12940052
115	0x3e0a5de9	0.13512386
116	0x3da95027	0.08267241
117	0xbcee44c9	-0.029085534
118	0x3e1255d4	0.14290553
119	0xbcfdd9b7	-0.030987604
120	0xbddb2d27	-0.107019715
121	0x3d2bd0ac	0.041947052
122	0x3e545752	0.20736435
123	0x3e8a2bdb	0.26986584
124	0xbab40af2	-0.0013736172
125	0x3e749be0	0.23887587
126	0x3e0f3e98	0.13988721
127	0x3e48c13e	0.19604966
128	0xbf249c94	-0.6430142
129	0xbd6b123b	-0.057390433
130	0xbda8b333	-0.082373045
131	0x3d03273e	0.032019846
132	0x3c9b0b14	0.01892618
133	0xbe4867b7	-0.19570814
134	0x3d85ca7f	0.06532764
135	0xbebe77a6	-0.3720066
136	0x3e4eba44	0.20188242
137	0x3f0c87fc	0.54894996
138	0xbe21ff5d	-0.1582007
139	0x3edd188d	0.43182793
140	0x3d515ddf	0.051114913
141	0x3d883a1a	0.06651707
142	0x3c1f4768	0.009721614
143	0x3e2354c4	0.15950304
144	0x3dfa1e9f	0.12212872
145	0x3e143ef7	0.14477144
146	0x3c25cf22	0.010120185
147	0x3e013cdd	0.12620874
148	0x3f035517	0.5130171
149	0x3d903de6	0.07043056
150	0xbba50e13	-0.005037078
151	0x3dec45a5	0.11536721
152	0xbdefb126	-0.1170371
153	0xbe31db17	-0.17368732
154	0xbaea147e	-0.001785889
155	0x3d86ceb2	0.06582393
156	0xbc00e21c	-0.007866409
157	0x3e417310	0.18891549
158	0xbc2051de	-0.009785144
159	0x3dec45c1	0.11536742
160	0x3ce40949	0.027836459
161	0x3d9072d3	0.07053151
162	0xbd4d9f8b	-0.05020098
163	0x3d425d53	0.047452282
164	0xbda0d776	-0.07853596
165	0xbc2ad071	-0.010425673
166	0xbc34afab	-0.011028211
167	0x3c30d00e	0.010791792
168	0xbe29299e	-0.16519782
169	0xbb155377	-0.0022785345
170	0x3dce5828	0.10075408
171	0xbeb9592b	-0.36200842
172	0x3e6573e4	0.2240749
173	0xbcb78967	-0.022404386
174	0x3e7f972f	0.24960016
175	0xbd2e9f5f	-0.042632457
176	0x3f1220b2	0.5708114
177	0xbd27bf31	-0.04095382
178	0xbd53613b	-0.051606398
179	0x3dcdef9e	0.10055469
180	0xbbca1065	-0.006166505
181	0x3e04b4f9	0.1295966
182	0x3d7ec3cb	0.06219844
183	0xbe66966a	-0.22518316
184	0x3e139bad	0.14414854
185	0x3ccb10b9	0.024788247
186	0x3cc39863	0.023876375
187	0x3d97f966	0.07420616
188	0x3e1a48a4	0.15066773
189	0xbcfadf99	-0.030624198
190	0x3e9dc7fd	0.3081664
191	0xbd27be08	-0.040952712
192	0xbe63ce93	-0.2224677
193	0xbd00e877	-0.031471696
194	0xbd63c2a1	-0.055605534
195	0xbdb4d6ce	-0.08830033
196	0xc04b2ae8	-3.1744938
197	0xbb72acb9	-0.003702922
198	0x3e46b867	0.19406281
199	0x3e2d1798	0.16903532
200	0xbecf4749	-0.40484074
201	0x3d4a9dcf	0.049466904
202	0x3ea97c7a	0.3310278
203	0x3d341859	0.043968532
204	0x3e1a8525	0.15089853
205	0x3e4abb05	0.19797905
206	0x3d032e3e	0.03202652
207	0x3d61717f	0.05503988
208	0xbc92ecfe	-0.017935272
209	0x3cbc9efd	0.02302503
210	0x3cb18fda	0.02167504
211	0xbbb52a36	-0.0055287136
212	0x3e0c896c	0.13724297
213	0xbd208d25	-0.039197106
214	0x3d66577a	0.056235768
215	0x3c90546f	0.017618386
216	0xbf0a7993	-0.5409176
217	0x3efe7f54	0.4970652
218	0x3da5e2d8	0.08099908
219	0xbccbce7e	-0.024878737
220	0x3e9bbe83	0.30418786
221	0x3dca2420	0.098701715
222	0x3eab79f7	0.3349149
223	0xbc66a686	-0.014077788
224	0xbd5cd901	-0.05391789
225	0xbdcf8910	-0.101335645
226	0xbec876e4	-0.39153206
227	0x3d52d204	0.051469818
228	0xbc8b6d64	-0.017019935
229	0x3e81e668	0.253711
230	0x3e9a8c6c	0.30185258
231	0xbe1d13fb	-0.15339653
232	0xbee12ac7	-0.4397795
233	0x3e8a8b88	0.2705958
234	0x3d242544	0.0400746
235	0xbdbd5668	-0.09244996
236	0x3dac75f4	0.08420935
237	0xbea29dd9	-0.31761053
238	0x3e007abb	0.12546818
239	0xbc6e2e17	-0.014537356
240	0x3e898d2e	0.26865524
241	0xbdd97db3	-0.10619678
242	0x3ccfc48f	0.025362281
243	0xbd821942	-0.06352474
244	0x3e0237c7	0.1271659
245	0x3c3b79b4	0.0114425905
246	0x3e06e522	0.13173345
247	0xbbe7d80b	-0.007075315
248	0x3ddc90f6	0.107698366
249	0xbd1c9131	-0.038224403
250	0x3e26a14a	0.16272464
251	0x3e87a0d0	0.26489878
252	0x3ca40ff1	0.020027133
253	0x3d76244d	0.060093213
254	0xbd1ac164	-0.037782088
255	0x3d63637c	0.055514798
